…
│                     │ 256)              │            │                   │
├─────────────────────┼───────────────────┼────────────┼───────────────────┤
│ batch_normalizatio… │ (None, 16, 16,    │      1,024 │ conv2d_21[0][0]   │
│ (BatchNormalizatio… │ 256)              │            │                   │
├─────────────────────┼───────────────────┼────────────┼───────────────────┤
│ activation_24       │ (None, 16, 16,    │          0 │ batch_normalizat… │
│ (Activation)        │ 256)              │            │                   │
├─────────────────────┼───────────────────┼────────────┼───────────────────┤
│ global_average_poo… │ (None, 256)       │          0 │ activation_24[0]… │
│ (GlobalAveragePool… │                   │            │                   │
├─────────────────────┼───────────────────┼────────────┼───────────────────┤
│ dense_18 (Dense)    │ (None, 32)        │      8,224 │ global_average_p… │
├─────────────────────┼───────────────────┼────────────┼───────────────────┤
│ dense_19 (Dense)    │ (None, 256)       │      8,448 │ dense_18[0][0]    │
├─────────────────────┼───────────────────┼────────────┼───────────────────┤
│ reshape_6 (Reshape) │ (None, 1, 1, 256) │          0 │ dense_19[0][0]    │
├─────────────────────┼───────────────────┼────────────┼───────────────────┤
│ multiply_6          │ (None, 16, 16,    │          0 │ activation_24[0]… │
│ (Multiply)          │ 256)              │            │ reshape_6[0][0]   │
├─────────────────────┼───────────────────┼────────────┼───────────────────┤
│ max_pooling2d_21    │ (None, 8, 8, 256) │          0 │ multiply_6[0][0]  │
│ (MaxPooling2D)      │                   │            │                   │
├─────────────────────┼───────────────────┼────────────┼───────────────────┤
│ dropout_19          │ (None, 8, 8, 256) │          0 │ max_pooling2d_21… │
│ (Dropout)           │                   │            │                   │
├─────────────────────┼───────────────────┼────────────┼───────────────────┤
│ conv2d_22 (Conv2D)  │ (None, 8, 8, 512) │  1,180,160 │ dropout_19[0][0]  │
├─────────────────────┼───────────────────┼────────────┼───────────────────┤
│ batch_normalizatio… │ (None, 8, 8, 512) │      2,048 │ conv2d_22[0][0]   │
│ (BatchNormalizatio… │                   │            │                   │
├─────────────────────┼───────────────────┼────────────┼───────────────────┤
│ activation_25       │ (None, 8, 8, 512) │          0 │ batch_normalizat… │
│ (Activation)        │                   │            │                   │
├─────────────────────┼───────────────────┼────────────┼───────────────────┤
│ global_average_poo… │ (None, 512)       │          0 │ activation_25[0]… │
│ (GlobalAveragePool… │                   │            │                   │
├─────────────────────┼───────────────────┼────────────┼───────────────────┤
│ dense_20 (Dense)    │ (None, 64)        │     32,832 │ global_average_p… │
├─────────────────────┼───────────────────┼────────────┼───────────────────┤
│ dense_21 (Dense)    │ (None, 512)       │     33,280 │ dense_20[0][0]    │
├─────────────────────┼───────────────────┼────────────┼───────────────────┤
│ reshape_7 (Reshape) │ (None, 1, 1, 512) │          0 │ dense_21[0][0]    │
├─────────────────────┼───────────────────┼────────────┼───────────────────┤
│ multiply_7          │ (None, 8, 8, 512) │          0 │ activation_25[0]… │
│ (Multiply)          │                   │            │ reshape_7[0][0]   │
├─────────────────────┼───────────────────┼────────────┼───────────────────┤
│ max_pooling2d_22    │ (None, 4, 4, 512) │          0 │ multiply_7[0][0]  │
│ (MaxPooling2D)      │                   │            │                   │
├─────────────────────┼───────────────────┼────────────┼───────────────────┤
│ dropout_20          │ (None, 4, 4, 512) │          0 │ max_pooling2d_22… │
│ (Dropout)           │                   │            │                   │
├─────────────────────┼───────────────────┼────────────┼───────────────────┤
│ conv2d_23 (Conv2D)  │ (None, 4, 4, 512) │  2,359,808 │ dropout_20[0][0]  │
├─────────────────────┼───────────────────┼────────────┼───────────────────┤
│ batch_normalizatio… │ (None, 4, 4, 512) │      2,048 │ conv2d_23[0][0]   │
│ (BatchNormalizatio… │                   │            │                   │
├─────────────────────┼───────────────────┼────────────┼───────────────────┤
│ activation_26       │ (None, 4, 4, 512) │          0 │ batch_normalizat… │
│ (Activation)        │                   │            │                   │
├─────────────────────┼───────────────────┼────────────┼───────────────────┤
│ max_pooling2d_23    │ (None, 2, 2, 512) │          0 │ activation_26[0]… │
│ (MaxPooling2D)      │                   │            │                   │
├─────────────────────┼───────────────────┼────────────┼───────────────────┤
│ dropout_21          │ (None, 2, 2, 512) │          0 │ max_pooling2d_23… │
│ (Dropout)           │                   │            │                   │
├─────────────────────┼───────────────────┼────────────┼───────────────────┤
│ global_average_poo… │ (None, 512)       │          0 │ dropout_21[0][0]  │
│ (GlobalAveragePool… │                   │            │                   │
├─────────────────────┼───────────────────┼────────────┼───────────────────┤
│ dropout_22          │ (None, 512)       │          0 │ global_average_p… │
│ (Dropout)           │                   │            │                   │
├─────────────────────┼───────────────────┼────────────┼───────────────────┤
│ dense_22 (Dense)    │ (None, 256)       │    131,328 │ dropout_22[0][0]  │
├─────────────────────┼───────────────────┼────────────┼───────────────────┤
│ batch_normalizatio… │ (None, 256)       │      1,024 │ dense_22[0][0]    │
│ (BatchNormalizatio… │                   │            │                   │
├─────────────────────┼───────────────────┼────────────┼───────────────────┤
│ activation_27       │ (None, 256)       │          0 │ batch_normalizat… │
│ (Activation)        │                   │            │                   │
├─────────────────────┼───────────────────┼────────────┼───────────────────┤
│ dropout_23          │ (None, 256)       │          0 │ activation_27[0]… │
│ (Dropout)           │                   │            │                   │
├─────────────────────┼───────────────────┼────────────┼───────────────────┤
│ dense_23 (Dense)    │ (None, 10)        │      2,570 │ dropout_23[0][0]  │
└─────────────────────┴───────────────────┴────────────┴───────────────────┘
 Total params: 3,988,266 (15.21 MB)
 Trainable params: 3,984,746 (15.20 MB)
 Non-trainable params: 3,520 (13.75 KB)

